SimpleCNN_ReLU_minimax_v2.pt (torch, 817437 bytes, 22 tensors)

conv_layer1.weight f4 [16, 3, 3, 3]
00000000: fbc5 f7bc 39c6 9c3d 7fb6 733d 0c5c a93b
00000010: 24d8 0fbd 5730 edbd 5153 85bd 38ac adbd
00000020: a984 d5bd 5881 c13c 1d0a d43d 87d6 e53d
00000030: 1202 a73d e32f 243e b6d8 743c c725 e73c
00000040: 0664 e73d ea75 953d 5b96 19be d3b7 0ebe
00000050: d9f0 8dbd 1a63 96bd 3f97 36bd a260 bfbd
00000060: 5277 3d3d f53a 523c db31 1e3d 1924 29bd
00000070: 5777 ae3d eff9 133c f9fe 74bc 7040 0c3e
00000080: 0daf cabd cb6f 723d f1cd 3e3e 3319 503d
00000090: b022 c1bd 2b17 573d aa8a 6abd 62ee 20be
000000a0: a4fe 64bd 144e 6bbe c69b e6bc 4b2c bcbc
000000b0: 4c48 2bbe 3f21 a43c ff16 793e f0e0 033e
000000c0: aa74 23bc 03ad 333e 3cb7 a5bc 39e2 8cbd
000000d0: 7363 733d 9d57 49bd 5de9 09bb c0c8 8d3d
000000e0: 3e01 cd3d 8f75 213d 0545 2bbd 7f8d c1bd
000000f0: b1e3 123e 2d45 283e f971 913d 57db f23c
00000100: 9bb9 043c 6dff a6bc d467 3b3d e611 43be
00000110: bd99 4fbe 5fc3 a53d 3716 993c 6bb8 03bc
00000120: cbea 893d 438e 1c3d db02 c73d 1a2e 033d
00000130: c373 34be 520b 36be 62d1 d23c e0cc 2b3d
00000140: 1d47 603b f168 b3bd 755f 9e3d d33e ae3d
00000150: 2f71 61bc 3850 333e 9ef4 b53d 2540 90bc
00000160: 8d14 75bd 582f 91bc 8aa4 b0bd 63ec 1a3c
00000170: fcdf 3abd 4975 373c ff78 863d 86be 94bc
00000180: 0615 4ebd b2ba 13be f9d1 fbbd e88f b1bd
00000190: 12d0 d93b ab11 12bd e652 983c 3a49 e63d
000001a0: 4d38 e33d eab7 f5bb afdb 82bd 9788 febc
000001b0: 99f2 8abb 50bf bd3d 4612 043d f44e e9bc
000001c0: 1461 ff3d 17bd a03d 5c4d 80bd 72ed 9e3c
000001d0: 4d10 74bd 82ac 79bd 6563 32bd c074 95bd
000001e0: 47a4 d2bd d903 603c 3a56 5ebc a6e6 80bd
000001f0: b8fa 063d 9943 80bc f613 37bd f4be 48bd
00000200: 78d3 1abd f944 97bd 2dfe c83c be2c 863d
00000210: 567e 7fbc 45c9 793d 4669 babb 09a0 afbd
00000220: 3ca1 ea3c a15a 013d 1727 e23d bd38 383e
00000230: 3a2e de3d bf22 923d fd5b f33d 5b50 10bd
00000240: a624 f8bc 2284 49bd bd3f aa3d b40b c4bb
00000250: e13e e43c bb55 733b 9fa9 3cbd 6c02 0bbe
00000260: fca8 3dbe 5806 843d 102d afbc 2ff3 5dbc
00000270: 244f 853d fa17 6b3c 931f 6a3c 07ee 59bd
00000280: da4a e5bd 3ceb 09be e9bb dc3c 2b0d cc3d
00000290: 53bf 7c3d e707 0e3d 8c7f 783d 4524 373d
000002a0: 767f 44be 1ec7 47be 331b 14bd a9d1 9d3d
000002b0: 2e07 d73d 06f2 cabc 9a81 183e 6128 863d
000002c0: 727d 07bd 7e43 a5bd 9abd 91bd dc4f 16bc
000002d0: 07fc bf3d 85f4 fd3c 185c fbbd f9fd 493e
000002e0: 6d84 9b3c 570f 96bd 322e eabc 1f73 edbd
000002f0: 55c2 e8bd a71f c4bd 7926 83bd 80b7 08be
00000300: 6f82 073d 40a2 363e 9a18 3dbd 32be 0bbd
00000310: d8ac 133e 45ed 4c3c 1f28 2b3d 9fd9 093c
00000320: 895c 2ebe 0c12 e83d 043c 483e 8f5c 10be
00000330: d019 db3c eced 253e 004f 73bd bb8b a63d
00000340: 789e 9b3d 1307 41bd f298 313d df54 023e
00000350: 23be 19be d2d8 d5bd 274e 08bd e05e 55be
00000360: 0005 19bd 9e66 af3d 013c 9a3d d96e 62bc
00000370: b772 5f3e 5aa8 79bc 8ac8 5dbe 9737 463d
00000380: 92fc acbd 6694 6abd 60c7 373d 2e83 b5bd
00000390: 43e7 b6bd 70ff 3d3e a69c e6bd 301f 3cbe
000003a0: 678d 633d 7e8b b5bd 75e5 a4bd 7ab3 94bd
000003b0: 8f7a 35be dcb1 ea3d b7b1 723e 43ae e2bd
000003c0: 6dfd 963d 5131 7d3e b8d5 20bd c427 f0bd
000003d0: ae98 89bd d11a b03d 4806 00be ea3d cd3c
000003e0: 0625 2d3e b9c5 89bd 5944 963d 6aa7 f23d
000003f0: 2532 ccbd fe86 96bd 83c4 d2bd 1b50 05bd
-0.030245772 0.076549955 0.059500214 0.0051684435 -0.035118237 -0.11581486 -0.06510032 -0.08480114
-0.104256935 0.023621246 0.103534915 0.112225585 0.08154692 0.16033892 0.014944246 0.028216256
0.11298375 0.07297881 -0.14998762 -0.13937311 -0.06930704 -0.07343121 -0.044577833 -0.09344603
0.04625637 0.012831439 0.038621765 -0.04129419 0.08518856 0.009031757 -0.014953368 0.13696456
-0.098966695 0.059188645 0.18633248 0.05080528 -0.09430444 0.05251233 -0.057261147 -0.15715936
-0.055906907 -0.22979003 -0.02815045 -0.02297034 -0.16726798 0.020035384 0.24325179 0.12878776
-0.009976545 0.17546467 -0.020228975 -0.06879086 0.059421014 -0.04915582 -0.0021043636 0.06923056
0.100100026 0.039418753 -0.04181387 -0.09450816 0.1434467 0.16432638 0.07101817 0.029645605
0.008100892 -0.020385468 0.045753315 -0.19049796 -0.2027349 0.08093905 0.01868735 -0.008039574
0.06734236 0.03822161 0.097173415 0.032026388 -0.17622285 -0.17777756 0.025734607 0.04194343
0.0034222074 -0.0876025 0.07733051 0.085080765 -0.013759895 0.1751107 0.08884548 -0.017608711
-0.059834052 -0.01772277 -0.08625133 0.009455773 -0.045623764 0.011197397 0.06566047 -0.018157255
-0.05031302 -0.14426687 -0.122959085 -0.08670026 0.0066471184 -0.03566138 0.018594217 0.112444356
0.11094723 -0.007498731 -0.063895576 -0.03107099 -0.0042403457 0.092650056 0.03224399 -0.02848003
0.12469688 0.07848566 -0.06264755 0.019400332 -0.059585858 -0.060955532 -0.04355182 -0.07297659
-0.1028524 0.013672792 -0.013570363 -0.06293993 0.032953948 -0.015657233 -0.04469677 -0.049010232
-0.03779933 -0.07386202 0.024535263 0.06551503 -0.015594086 0.06098296 -0.005688819 -0.08575446
0.028641336 0.03158057 0.11042612 0.17990394 0.10848661 0.071355335 0.1188278 -0.035232883
-0.030290913 -0.049198277 0.08312938 -0.0059828404 0.027862014 0.0037129957 -0.0460602 -0.13575143
-0.18521494 0.064465225 -0.021383792 -0.013546749 0.065092355 0.014348978 0.014289754 -0.053205516
-0.111959174 -0.13468641 0.026945071 0.09963449 0.0617059 0.034675505 0.060668513 0.044712324
-0.19189247 -0.19509551 -0.03615875 0.07706005 0.10499416 -0.024773609 0.14893189 0.065506704
-0.03307862 -0.08069514 -0.07116242 -0.009174313 0.09374242 0.031000385 -0.12273425 0.19725789
0.018984044 -0.073271446 -0.02858648 -0.11594223 -0.11365191 -0.0957635 -0.064038225 -0.1335125
0.033083376 0.17835331 -0.04616604 -0.03411693 0.14421403 0.012507741 0.04178631 0.008413701
-0.17027487 0.11331567 0.19554144 -0.14097808 0.026745707 0.16204041 -0.059401512 0.0813212
0.07598585 -0.047125887 0.04335875 0.12727688 -0.15013938 -0.10441746 -0.033277657 -0.20836973
-0.037358284 0.085644946 0.07530976 -0.013820373 0.21821104 -0.015237892 -0.21658531 0.04839286
-0.084466115 -0.05727043 0.044867873 -0.08862911 -0.089308284 0.18554473 -0.11260347 -0.18371272
0.055554774 -0.08864497 -0.08051578 -0.07260795 -0.17722534 0.11459705 0.23700605 -0.11068394
0.07372556 0.24725844 -0.039266318 -0.11726335 -0.067185745 0.08598865 -0.12502396 0.025053937
0.16908655 -0.06727166 0.07337255 0.11848338 -0.09970502 -0.073499665 -0.10291388 -0.032547098

conv_layer1.bias f4 [16]
00000000: 10a8 9b3c c72e b03c b1a6 253d c254 b3bc
00000010: a8bc 6ebc 6644 03bd 0d4e adba 591b dabc
00000020: cfd5 373d cc0d c63c b9c7 f1bb 1246 9abc
00000030: dbba 2f3c f9e5 b5bc aa35 8f3c 408c 0b3d
0.019001037 0.02150668 0.040442172 -0.021891002 -0.014571346 -0.03204765 -0.0013222113 -0.026624369
0.04488164 0.0241765 -0.007378545 -0.01883224 0.010725702 -0.022204386 0.017481644 0.0340693

conv_layer2.weight f4 [32, 16, 3, 3]
00000000: 7580 333d c3a9 573c f577 09bd ee3f bb3c
00000010: 3399 863c c773 b0bc 3a6a 93bb 4b61 6c3c
00000020: f42d c5bc a892 29bc 7ab0 9b3c e5d7 d43c
00000030: 8019 27bd d33e ccbc 0807 cb3c 8ecf b1bc
00000040: 2033 2b3c a755 413d 5bdf 083c 103d 073d
00000050: 1e94 343d 2fd3 38bd 4c13 37bd 156a de3c
00000060: 8d50 e33c e79e aabc bac4 a1bb f600 20bc
00000070: 4715 babc bf89 2b3c b7ec fabb 9670 9e3c
00000080: dbd9 8d3c a38f 24bd 939f 53ba d03e 5a3c
00000090: 16e1 09bc 18a4 10b8 0d87 1a3c a36a a5bc
000000a0: 2bd1 873c bcbe be3b d3f3 4fbd 7636 363b
000000b0: dce3 913b ef51 25bd e1e4 e73b eaa3 103d
000000c0: e157 03bd 6138 dcbb 94bd c93b 2cad d4bc
000000d0: 0ea6 aebc f44f f2bb b3d8 0a3c 1ffa 42bc
000000e0: 8274 4abd ac01 a83a 5c83 e8ba e2d6 85bc
000000f0: cbb6 843a 24ab a43c bfb9 0a3c dbd9 913c
00000100: 8413 013d 25f7 0cbd a13e 3b3c d0b3 ce3c
00000110: 78b8 033d 6572 eabc a48a 26bd 0841 353c
00000120: 8805 013d 5ee3 fa3c 29dd 3ebc 877c d13b
00000130: 468f 6e3d 83cb bb3c 784e 1fbd 1c8b 6bbc
00000140: 5e72 8e3b 4d42 bc3c 117d 9d3c 0910 9f3c
00000150: 06ea 33bc ea2b 10bb 096d 4dbb 3084 59bc
00000160: 84cb c0bb 1035 b83b b075 06bc 484b 0ebd
00000170: cc88 29bd 8818 3a3c 36f7 d1bc adbe 3ebd
00000180: bcf6 563d 4326 f33c 8f6e 453c 92ea b1bb
00000190: 60ff 54bc 7733 bfba 8894 ba3b 7da1 3dbd
000001a0: 0791 913c 98a2 473d a05d 933c 9897 203d
000001b0: 9f65 2b3c 8efd 7dbc 4819 80bc ab12 b03c
000001c0: 907a 093d 42d6 d63c 8a03 62bc 6904 32bc
000001d0: a985 b03c eb95 983c 9001 893b 7b07 0dbd
000001e0: 9bef 2cba 4492 993c 304d 183d c536 123c
000001f0: 45aa 98bc 68db c83b 5a9d 2c3d 19a4 803c
00000200: 1ccb a4bc 7f25 063d e1ba 383d 3032 723c
00000210: bfdc 003c af3e 13bd fdd0 81bd fa93 ac3c
00000220: afb8 2e3c 233f 2abb 13a7 8b3c 23ed 0a3c
00000230: c92e 23bd 05df e13c 0d17 823c 03ff fe3b
00000240: 25fd 343c 8d8c a03c f2a0 253c 244a 80bc
00000250: b60a 0a3c b8e0 81bc 990f b03c 962c 703c
00000260: 91b1 8abc 68fe e2bc 3ee2 163d 5716 5e3c
00000270: 2255 ea3b 7f9e 2e3d 1979 cc3a fac4 3ebc
00000280: 2f57 8aba 0a78 0ebd 4943 d53c d07e 863b
00000290: 186b 593c 6792 a3bc 77c6 323a 52f8 ac3c
000002a0: 5cf8 c1bc 6d14 65bc 710c 2a3b 1276 a6bc
000002b0: d78e 653c d835 16ba 9572 a5bb 02d7 ae3c
000002c0: b76c 7a3c 97ee 65bc b8ff d83b f76c b8bb
000002d0: 4aa1 0dbc de24 fb37 4a7b a3bc ff43 7abc
000002e0: 4bc4 383c 6694 83bc 048f 073c 7b17 a2ba
000002f0: 0817 083c f76c 98bc fb26 6f3c 19a3 473c
00000300: 510b af3c 9a2a 5b3b d322 883c 6be4 8bbb
00000310: 4121 4bbc c63a cbbc dfaa 0f3a 2416 5ebc
00000320: 78a7 a53c de32 f73a 9968 63ba 143a 3e3d
00000330: f036 a6bb ff4b 073d b711 a73c c0d7 05bd
00000340: c88f ccbc 2af4 5ebc 15be fd3c 37b4 e13c
00000350: 5429 07bd 76a7 f53c 4033 f63c 72eb 23bd
00000360: d5a8 b1bc c86c 153c 5e83 273d 2355 dbbc
00000370: a93d be3b 5ae3 d33b 8ff9 4d3c 6a7d e03b
00000380: f008 b2bc cf2a babc 2900 8f3c b6e4 1c3d
00000390: 3386 74bc 623e f23c a828 c13c acb8 0dbc
000003a0: a139 60bb e948 993c 7ba9 2cbc b077 083d
000003b0: 1e1d e53c b54c e7bc 7e18 b73c 04cd cebb
000003c0: 221d a1bc a953 40bb ef60 d63b fc02 c13c
000003d0: 4adc efb9 e377 5bbc 1b52 50bc 57ec d73b
000003e0: 44d9 1cbc c779 21bc 6a4e 243d aff1 3cbc
000003f0: 0d32 983c aa5f 54bc 4561 423b 8b09 e0bc
0.043823678 0.013163033 -0.033561666 0.022857632 0.016430473 -0.021539582 -0.004498747 0.014427493
-0.024069764 -0.010349907 0.019005049 0.025981853 -0.040795803 -0.0249323 0.024783626 -0.021705415
0.010449201 0.047200825 0.008354033 0.033017218 0.044086568 -0.045123275 -0.044696137 0.027150193
0.02774837 -0.020827724 -0.0049367817 -0.009765854 -0.022715224 0.010469853 -0.007657613 0.019340795
0.017315796 -0.040176045 -0.00080727896 0.01332064 -0.008415481 -3.44851e-05 0.009431613 -0.02019245
0.016579231 0.005821077 -0.05076964 0.0027803457 0.004452212 -0.04036134 0.007076845 0.03531257
-0.03206623 -0.006720588 0.0061566327 -0.025961481 -0.021319415 -0.007394785 0.008474517 -0.011900454
-0.049427517 0.0012817881 -0.0017739343 -0.016337816 0.0010125277 0.020101137 0.008467137 0.017804077
0.031512752 -0.034415383 0.011428506 0.025232226 0.032158345 -0.028619 -0.04065956 0.011062868
0.031499416 0.030625995 -0.011649408 0.0063930186 0.058242105 0.02292419 -0.038893193 -0.014376428
0.0043471297 0.022980833 0.019224675 0.019416826 -0.0109810885 -0.002199883 -0.0031345508 -0.013276145
-0.005883636 0.00562156 -0.00820677 -0.034739763 -0.041390225 0.011358388 -0.025630575 -0.04656856
0.052481398 0.02968133 0.012050285 -0.0054295743 -0.013000339 -0.0014587481 0.005693976 -0.046296585
0.01776935 0.048739046 0.01798898 0.03920707 0.01046124 -0.015502347 -0.015637055 0.021493277
0.03356415 0.026225213 -0.013794789 -0.010865309 0.02154811 0.018626174 0.0041810945 -0.034430962
-0.00065969833 0.018746503 0.037182987 0.008924191 -0.018635878 0.006129671 0.04214225 0.015703248
-0.020116381 0.032750603 0.045100097 0.014782473 0.00786513 -0.03594845 -0.063386895 0.021066654
0.010664149 -0.0025977574 0.01704744 0.008479389 -0.03983954 0.027572164 0.015880132 0.0077818646
0.0110466825 0.01959827 0.010109173 -0.015660353 0.008425405 -0.015854225 0.021491813 0.014659068
-0.016930373 -0.027709201 0.036836855 0.013555131 0.007151262 0.042631622 0.0015600055 -0.011643643
-0.0010554547 -0.034782447 0.02603306 0.0041044727 0.013270162 -0.019967271 0.00068197347 0.021114502
-0.023677997 -0.013981921 0.0025947357 -0.020319972 0.014011106 -0.0005730069 -0.0050490596 0.021342758
0.015284709 -0.014033935 0.006622281 -0.005628224 -0.008644411 2.99387e-05 -0.01995625 -0.015275001
0.011277269 -0.016061973 0.008273844 -0.0012366617 0.008306272 -0.018606646 0.014596696 0.012184882
0.0213677 0.003344214 0.016618168 -0.004269173 -0.012398065 -0.024808299 0.0005480479 -0.013555083
0.020221457 0.0018859764 -0.0008674949 0.046442106 -0.005072467 0.03303146 0.02039419 -0.03267646
-0.024970904 -0.013608018 0.030974427 0.027551753 -0.032998398 0.029987078 0.030053735 -0.04001946
-0.02168695 0.009120174 0.040896766 -0.026773995 0.0058056903 0.0064663114 0.012571706 0.006850888
-0.021732777 -0.02272549 0.017456131 0.038304053 -0.014924574 0.029570762 0.023578957 -0.008649986
-0.0034214037 0.018711524 -0.010538454 0.033317268 0.027967986 -0.028234819 0.022350546 -0.006311061
-0.019667212 -0.002934674 0.006542317 0.023560993 -0.0004574976 -0.013395282 -0.012714888 0.006589453
-0.009573285 -0.009855694 0.040113844 -0.011532231 0.018578554 -0.012962261 0.0029660028 -0.0273483

conv_layer2.bias f4 [32]
00000000: 34e4 3cba 0b29 dabb f54e cabb c5fa 2dba
00000010: 348a 40bc 158b 993c f7b1 dbbc d669 f73a
00000020: 4d48 803c 592a 43bb 15b9 18bb 01d4 1a3d
00000030: 5aab 84bc 8193 5e3c d09d 06bc d567 efbc
00000040: be46 f3ba 2270 693a 0a76 9e3a 29d2 b1bb
00000050: 29e0 4d3c 0ede 223c 0362 99bc f459 433b
00000060: 2e0b a8bc 60d1 e3b9 1138 583c 1415 533c
00000070: 0c20 863b 28d5 eebb 37ed 353c bf1e e53b
-0.0007205636 -0.0066577247 -0.006173963 -0.0006636794 -0.0117517 0.018743077 -0.026818259 0.0018876146
0.015659476 -0.002977988 -0.0023303677 0.03779984 -0.016194988 0.013584972 -0.008216336 -0.029224316
-0.0018560512 0.0008904954 0.0012089622 -0.0054266644 0.012565651 0.009940637 -0.018723493 0.0029808255
-0.020513143 -0.0004345281 0.013196961 0.012883443 0.0040931758 -0.007288594 0.01110392 0.0069921906

conv_layer3.weight f4 [32, 32, 3, 3]
00000000: 85cc 01bd 06e2 2bbc 904c bcbc 274c f53c
00000010: 4297 f83c d0e1 053d 80a4 cebc e847 723c
00000020: 557d debb 748b 863c 3bfc b6bc 0f87 d93c
00000030: ca7c c5ba aa04 bfbc a97e 85bc b21e 953b
00000040: 6313 80bc 5021 603c cf6f baba 0ac1 a53b
00000050: e12e a43c c76a b93b 772a ebbb 71eb b73b
00000060: 1d19 b6bc 3025 27bc 3899 8c3c ef24 afbc
00000070: 555d 1dbd cbfb e5bb e113 2f3c 86dc 17bd
00000080: d76f 55bc 7a7d 8f3c 75db ceba 6a15 273c
00000090: 6530 cb3c 0883 403d cc0c 203d 16c6 fabc
000000a0: ecaa c6bc 696f f9bc a516 62bc 31ce a23b
000000b0: 6a79 93bc aa21 84bc aaea b83c c67b 2b3d
000000c0: f391 57bd a2e5 b63c 7d56 583c 5559 d5bc
000000d0: ad98 543d dd0c 2d3d 09e1 c53c 7da0 edbb
000000e0: be50 13bd dadd 353d e187 5e3b 813a 1bbc
000000f0: 530d aabb 5f9e c9bc 2723 c9bc 4ad5 0dbc
00000100: 8396 ad3b 9391 4a3b d1d2 4438 1fbe 2fbc
00000110: 94a8 0fbb 5899 163c f8b2 bfbb b6b2 fbbb
00000120: c645 873c d358 b03b eadb 6dbc a8cf ee3c
00000130: 26af d9bb fc99 dcbc 5612 343d 7fb4 09bc
00000140: 3f51 1fbb 35b4 303c 3703 62bc 69e4 b0bc
00000150: c772 913a 7e31 803b 07b6 dcbc c237 2b3c
00000160: c2c2 a33c 8a9c b43c 479b 1e3c ebca 9c3c
00000170: 69cc acbc 752e b03c e09c da3c 70ff 203c
00000180: d4a5 663b 7eda c43c caa2 8b3c a581 08bd
00000190: aa9e 6a3c 99e4 b53c 85cc 9ebd bafa 0bbd
000001a0: 88ae 4abd 800f 4d3c 91ef 2a3d 22a0 083d
000001b0: de64 6b3d d027 983b db9a 953a 8d6a 85bc
000001c0: 9408 63bc 73b1 2a3c e939 8a3c ba5c 88bc
000001d0: 192f 2bbb a01f e9bb 13e0 90bc f0cd 39bd
000001e0: 2681 aa3c 338d d53c 4b86 c53b 34aa 37bc
000001f0: 3758 b03c d534 b8bc c599 d83b 3614 80bb
00000200: afad babb 28df c93a d8d1 69bc de46 23bc
00000210: 37c6 353d 1e1b 87bc fd6d 54bc 7f8c 893c
00000220: ba9a 443c 3ea4 03bc ca7a 9cbb ebaf 8abb
00000230: 6210 aebb def5 0d3a 9068 cc3b 360b 26bc
00000240: 5ad3 75bc fef3 84bc 8b2a 303c 838f 96bb
00000250: 9ec3 863c c81d 253d 3975 bebc fdf5 9e3c
00000260: 4fb8 653c eade 9cbc 33ef 07bd 515f 703b
00000270: 3c4a 84bc dc13 2bbc 9cfe 37b9 d0e1 1e3d
00000280: fafc 36bc 2d5f 903c c79a 3c3c 6323 253d
00000290: 6001 b0bb b831 34bd c267 763b 29ec 2fbc
000002a0: be37 e63b 78da 0a3c ad68 f4bc 47cf d6bc
000002b0: c4d7 88bc fbdf db3c 6e45 e6b9 5f1d 6f3c
000002c0: fb2a 473c 7f3f 14bd 453e 0fbb 12c3 483c
000002d0: e908 18bd 5004 e9bc adc6 55bd af50 013d
000002e0: 055c a93c c1b4 f53c 0d74 dabc afda 5039
000002f0: 3dca 8ab8 3631 f8bb 969a b6bb 9b97 f53c
00000300: 81b3 443c 411a d6bb 0a4b 853c 5fa3 5fbc
00000310: 78df b7bb 7b92 783b 67ab ce3b b6d5 0c3d
00000320: 9354 c8bb 3aa9 cf3c c3ec 183d 4063 793c
00000330: aceb d5bc dffc 3f3c 288b d3bc 4b59 6f3c
00000340: dbf9 b6bc 5148 57bd 22ab 343d 5d07 10bc
00000350: 8387 613c c7cc c83b 0974 1abd b61a d4bc
00000360: a518 09bd 9a19 0dbc 8d97 843c 5ba1 31bd
00000370: 8823 f53a f502 0bbc 4039 20bc aade b7bb
00000380: 94af 24bb 624e d1bc df8b 29bd f981 3cbd
00000390: 50d0 c23c 4324 133d a004 b33c efa3 b0bc
000003a0: af3f d33b 94d5 05bc 5057 12bc a063 e83b
000003b0: e3ad a73b 0856 16bc 413e 973c be53 47bc
000003c0: 4907 05bc 13fd b33c 8f21 6ebc cb03 f5b9
000003d0: f610 e8bc 003e f3bc 065c a83b cf6f a6bc
000003e0: ff54 57bd 535c 0b3d e98c 5e3b e163 d0bb
000003f0: 74be 3bbc 45cd f23c 6a4f d43c a765 e0bb
-0.031689186 -0.0104909 -0.022985727 0.029943539 0.030345563 0.032686055 -0.025224924 0.014787652
-0.006789843 0.016423918 -0.02233707 0.026553659 -0.0015067097 -0.023317654 -0.016295748 0.0045507783
-0.015634244 0.013679817 -0.0014223995 0.0050584124 0.020041885 0.005658481 -0.007176693 0.0056127836
-0.022228772 -0.010201737 0.017162904 -0.021379916 -0.038419086 -0.0070185415 0.010685892 -0.037075542
-0.013027153 0.017515887 -0.0015781956 0.010197977 0.02480335 0.04699996 0.039074704 -0.030612033
-0.024251424 -0.030448632 -0.013799344 0.0049684276 -0.01800223 -0.016129334 0.022572834 0.041866086
-0.052629422 0.022326294 0.013204214 -0.026043573 0.051903415 0.042248596 0.024155157 -0.0072517977
-0.035965674 0.044401027 0.0033955502 -0.009474398 -0.0051895767 -0.02461165 -0.024552895 -0.008656809
0.0052974834 0.0030909523 4.692638e-05 -0.010726481 -0.0021920549 0.009191833 -0.005850192 -0.007681216
0.016512763 0.0053816824 -0.014517764 0.029151753 -0.006643194 -0.026928894 0.0439628 -0.00840485
-0.00243099 0.010785152 -0.013794712 -0.02159329 0.0011096828 0.00391215 -0.026942266 0.010450305
0.019990329 0.0220473 0.009680576 0.019139728 -0.021093564 0.021506527 0.026686132 0.009826526
0.0035194056 0.024029966 0.017045397 -0.033326764 0.014320055 0.02220373 -0.07753853 -0.03417466
-0.049482852 0.0125159025 0.041732375 0.03335584 0.05746924 0.004643418 0.0011413948 -0.016286159
-0.013857026 0.010418284 0.016873317 -0.016645778 -0.0026120602 -0.0071143657 -0.017684972 -0.045362413
0.020813536 0.026068306 0.006027972 -0.011210013 0.02152644 -0.02248613 0.0066101276 -0.0039086593
-0.005696974 0.0015401589 -0.014271222 -0.0099656265 0.044378486 -0.016492423 -0.012965676 0.016790627
0.01199978 -0.008034764 -0.00477538 -0.004232397 -0.0053120116 0.000541536 0.0062380508 -0.010134509
-0.015004003 -0.016229626 0.0107523305 -0.0045947446 0.0164507 0.040311605 -0.023249255 0.019404406
0.014020993 -0.019149262 -0.033187103 0.0036677907 -0.016148679 -0.010441747 -0.0001754709 0.03878957
-0.011168713 0.017623508 0.011511511 0.04031695 -0.0053712577 -0.043992728 0.0037598466 -0.010737457
0.007025688 0.008474939 -0.02983507 -0.026221884 -0.016704448 0.0268402 -0.00043920748 0.014594405
0.012156243 -0.036193367 -0.0021857184 0.01225354 -0.037117872 -0.02844444 -0.052191425 0.031571086
0.020673761 0.029993417 -0.026666665 0.00019917892 -6.6180226e-05 -0.007574226 -0.0055726273 0.029979518
0.012005688 -0.0065338914 0.016271133 -0.013649791 -0.0056113563 0.0037929106 0.006307054 0.034383498
-0.0061135977 0.025349248 0.03733517 0.015221417 -0.026113354 0.011718004 -0.02582319 0.014608691
-0.022335937 -0.0525592 0.044108517 -0.008790818 0.013765219 0.006127927 -0.037708316 -0.025891643
-0.03347077 -0.008612061 0.016185546 -0.04336677 0.0018702606 -0.008484592 -0.009779274 -0.0056112604
-0.0025129067 -0.025550071 -0.041393157 -0.04602239 0.023780972 0.035923254 0.021852791 -0.021562545
0.0064468007 -0.008168597 -0.00893195 0.0070919544 0.0051171645 -0.009175785 0.018462302 -0.012165962
-0.008119413 0.021971261 -0.014534368 -0.00046732867 -0.0283284 -0.02969265 0.005137923 -0.020316986
-0.052571293 0.034023594 0.00339585 -0.0063595627 -0.011458982 0.029638896 0.025916774 -0.0068480554

conv_layer3.bias f4 [32]
00000000: 9167 ad3b ca8c 0dbc 3586 863b 5d89 24bc
00000010: 8ca9 0d3c 34ed 85bb 690d bc38 25d7 36bc
00000020: 1d0f dbbb 7764 bfbb f32c c53b 5b83 f4bb
00000030: 0c56 3cbc d5b7 f5ba fd09 1d3c a3b0 3c3c
00000040: e07d a7b9 d568 28bb 5e54 2dba fef9 843b
00000050: 2d39 213b 969b 3abb 9dec d0ba a689 553b
00000060: f106 aa3b d47c ec3b 5394 b43b 4afd 283c
00000070: 56fd c13b ba32 41bb 8f11 ae3b bd79 323c
0.005291887 -0.008639524 0.004105354 -0.010042516 0.00864638 -0.0040871147 8.9670364e-05 -0.011159693
-0.0066851513 -0.0058408338 0.0060173213 -0.007461948 -0.011495125 -0.0018746803 0.009584901 0.011516723
-0.00031946506 -0.002569725 -0.0006611998 0.0040581217 0.002460073 -0.0028474084 -0.0015939657 0.0032583266
0.0051888158 0.007217029 0.0055108457 0.010314295 0.0059200926 -0.0029479698 0.0053121517 0.0108932825

bn1.weight f4 [32]
00000000: c9d0 e63e 9877 023f b884 4b3f 2904 463f
00000010: 7a1b 073f f1b1 d63e 0074 203f 0d36 053f
00000020: 745c fe3e be82 fd3e 99b0 2d3f f47b d93e
00000030: 406a 1f3f fb59 d93e 8b59 d13e 0a80 093f
00000040: c7de 203f 2d70 be3e ee45 363f 3dc2 013f
00000050: 293f 153f 37df f43e 931b ed3e 16ab cb3e
00000060: a3bc 053f 890a 263f bc70 df3e c3b7 0a3f
00000070: 6768 aa3e f812 d23e 9c58 e83e 119a fb3e
0.45081165 0.50963736 0.7949939 0.773501 0.527763 0.41932634 0.62677 0.520356
0.4967991 0.4951381 0.6784759 0.4247738 0.622715 0.42451462 0.40888628 0.53711
0.6283993 0.37194958 0.71200454 0.5068701 0.582995 0.4782655 0.463101 0.39778966
0.5224096 0.64859825 0.43640697 0.5418665 0.33282778 0.41030097 0.45380104 0.4914098

bn1.bias f4 [32]
00000000: b519 2abd 2338 2bbe c2ee bebd 646c 1cbe
00000010: 0f7a 1ebe 2a23 56bd 4eba 05be 6467 0bbe
00000020: 25f1 f3bd 3ab7 a4bd a8b4 1cbe c953 9abc
00000030: 5dc9 0bbe 2b73 78be 7f05 86bd ea02 07be
00000040: 940f 0abe 4a05 f5bd b05e 03be 1a30 4fbe
00000050: b883 1abe 5fc2 cfbd fef4 15be f824 92bd
00000060: 5f1f 2cbe ea98 52bd 864b 88bd eb8c 0bbe
00000070: b382 a53d 17c0 babd 87db 03be 3fec 06be
-0.041528422 -0.16720633 -0.09322883 -0.15275723 -0.15476249 -0.05227963 -0.13059351 -0.13613659
-0.11911229 -0.0804276 -0.1530329 -0.01883878 -0.13651033 -0.24262683 -0.06544017 -0.13184705
-0.13482505 -0.119638994 -0.12829089 -0.20233193 -0.15089309 -0.10144495 -0.14644238 -0.071359575
-0.16808842 -0.05141536 -0.0665503 -0.13627975 0.080815695 -0.091186695 -0.12876712 -0.13176058

bn1.running_mean f4 [32]
00000000: 9c84 a8ba f92c 9ebc 9161 a839 b0a1 3fbc
00000010: b9f9 163c a00e e3bb 73a2 8fbb a79b 80bc
00000020: 8835 d2bb 5c1c d1bb 08e2 9e3b e2e2 48bc
00000030: 1dee 67bc 9a20 403c 237f a33c 2980 493c
00000040: 0eab 2dbb 2e49 573b 8f44 0b3a 3a45 40bb
00000050: cb51 76bb 5d01 3cbb ee94 5fbc 3288 133c
00000060: b06a 45bb 732f 9a3b 0f36 b13b 8893 893b
00000070: 2b54 a53b cecb 70ba 19da 29bc d963 5e3c
-0.0012856903 -0.019308554 0.0003211615 -0.011696264 0.009214812 -0.0069292337 -0.004383379 -0.01569922
-0.006415073 -0.0063815545 0.0048487224 -0.012261124 -0.014155892 0.011726523 0.019958084 0.012298622
-0.0026499662 0.0032850015 0.0005312645 -0.0029338137 -0.0037585374 -0.0028687336 -0.013646347 0.009004639
-0.0030123405 0.0047053634 0.0054080556 0.0041984953 0.005045434 -0.00091856427 -0.01036694 0.01357361

bn1.running_var f4 [32]
00000000: 065c f938 a20b 1b39 37c5 b439 ea91 ae39
00000010: 3cab c138 10ba ff38 cfe6 5d39 fda9 2d39
00000020: 78de f438 c67a 0939 e5d9 3039 48ac 0239
00000030: b01e 9239 1bc2 0439 6968 2039 0c00 da38
00000040: b48e 3e39 4b2c bd38 837e 7b39 36dd 2c39
00000050: 7feb 8139 898f db38 c57d 1639 000e ea38
00000060: 87a7 4939 8d01 cc39 2716 ea38 d6ff 4739
00000070: 4d51 1239 eb0e 0c39 c478 0f39 3cee 3939
0.00011890386 0.00014786285 0.00034479212 0.0003329658 9.234852e-05 0.000121940044 0.00021162185 0.00016561891
0.00011676265 0.00013111075 0.0001686584 0.00012461946 0.00027870154 0.00012660811 0.00015297685 0.00010395059
0.00018172973 9.0204725e-05 0.00023984355 0.00016485606 0.00024780256 0.00010469469 0.00014351968 0.00011160597
0.00019231263 0.00038911068 0.00011162116 0.00019073425 0.00013953932 0.00013356998 0.00013682531 0.00017731724

conv_layer4.weight f4 [64, 32, 3, 3]
00000000: 0899 17bd 99d7 e1ba cc1e 503b 456c c1bc
00000010: 97d7 5bbb f4c8 883b 0f7e b83c 74eb 95bc
00000020: b73d b63c 24d4 4b3b c89e dabb ca54 58bc
00000030: fdd3 dc3b b109 8ebb e31d c73b 7ba0 093c
00000040: 0957 b7b9 71d3 313d 9e63 373d d098 c53c
00000050: 0c9a 2d3c 8f91 8d3c 82e6 4a3c 3731 1d3b
00000060: 5163 b4bb 4b89 23b9 eae5 e93b 3c38 61bc
00000070: 6ed6 7dbc 6b29 90bc 2527 c7bc 0a9b 46bd
00000080: 65a7 53bd b153 8b3d 5ee9 6abc 2061 a4bd
00000090: bbc7 3b3d decf c03c 54a0 c8bb c733 ee3c
000000a0: 493f db3b c206 153b f9fa 28bc 1fd6 9dbc
000000b0: 4bfc 9fbc c62b 34bc eebf 863c f912 d33c
000000c0: 2510 61bc 6d4a abbc 97be f8bb 8c96 f33c
000000d0: 9429 84bb e5dc 0e3c c309 553c f110 053d
000000e0: 82da e43c b58b 1d3b c148 2c3c b9b7 3bba
000000f0: 0b50 babc 78b0 5f3c 7ef5 ea3b e079 bbbc
00000100: 7b66 a23c a703 533d acf0 623b 2da0 75ba
00000110: 5b15 f2ba 1179 7c3b afb2 a4bc 8f1e 16bd
00000120: 7dd0 1ebc 82e5 e7bc fa94 8c3c 6d26 f8bc
00000130: 20d2 cebc 7796 a3bc 0731 493c 00a5 cf3c
00000140: c669 5f3c 136c 7abc 0fdb 2dbd c821 acbc
00000150: dfad 94b9 b350 053c 0a4e b7bc 17d5 bbbc
00000160: 1db7 4fbc d579 46bd 8443 96bc db89 2b39
00000170: ecc8 72bb 895d 67bc 1fae 3b3b 0e66 89bc
00000180: 966f 023d 5abb ca3c c355 07bd f1f4 3ebd
00000190: 3d48 15bd 360a 1b3d 1909 a0bc 9ebf 0fbc
000001a0: 6ce7 ab3c 23f7 afbb 92d4 483c ff26 6c3d
000001b0: 482d b83c 8e39 133d 7b11 133d 6b8b 0ebc
000001c0: 5d21 c33b a400 2a3c 01f3 2ebd c592 0abd
000001d0: e4cf 15bd 246b c2bb 1595 dfbb 44da b83c
000001e0: 4694 53bb acba 44bc 2e0f c1bb b226 aebb
000001f0: e15e 053c ccc7 9d3c 63f2 73bc 8680 81bc
00000200: 26ad 4fbc 9034 ebbc e4e5 12bb 80a0 1b3d
00000210: dcf2 003c ec3d 173c ee69 263d 42f4 2dbb
00000220: a01f bcbc 12eb 41bb 52c7 253c ac8a cfbc
00000230: 8c26 56bc ee1f fb3c 8133 f23b e8e7 61bb
00000240: 4ec7 78b9 fc15 723a 59c3 abba 57c8 ca3c
00000250: 0649 d53c d43f 9b3c 2611 123d fd55 423b
00000260: 2ad5 c4bc 470f 7ebc fea1 3fbc 9ad2 a5ba
00000270: 65e8 873c 5263 9bba b2d5 b03c 6a50 353c
00000280: 8665 dfbb eac3 3f3c 698d c43c 6710 373d
00000290: 00fa a83a 5c6b 60bd beae 1fbc 31af 8dbc
000002a0: bfdb 01bd 50df dfbc f810 f8bc 7778 9ebc
000002b0: 4093 11bc c2c9 9d3a 5c92 7dbc d6ec dfbc
000002c0: c82b 8dbc 35c2 1cbc 3c73 893c 0f20 a9bc
000002d0: 023f 61bb 3834 b73c 9b73 83bc f38b 663c
000002e0: 4c0a 943c d718 aabb e7cd b8bc e6c6 783c
000002f0: 5b8e ec3c af7c d73c caeb 163c 9258 d0bc
00000300: e78a 59bb 4aab 433c 51c3 b9bc 43c4 aabc
00000310: 3100 7ebc fd33 4cbc 1360 813c 6beb 8a3c
00000320: 0317 02bb afe0 8dbc 732c d23a fb3a 083c
00000330: 4d57 2cbc 93e4 793c 15e3 5c3d 44fc 7a3c
00000340: 07ce 0bbd f644 f0bc 8c85 233c 475c 53bb
00000350: d602 abbc 9184 bb39 b64f 673c d7eb 41bd
00000360: 4cde 453b 1395 43bc a650 96bc a351 aebc
00000370: 9d89 98bb 958d 60bc e419 b7bc 378c a13b
00000380: 70e5 053d f2d1 8b3b 59e5 94bc edfc 4d3b
00000390: 06b6 aebc 6e08 2dbd 60e1 53bc b4ac 763b
000003a0: d41f cabc c17c 203c 8980 bdbc d44d e4bc
000003b0: a0bc 6bbb 98f7 ba3c b4d2 263d 0ba7 aa3c
000003c0: ca63 d23b b94b 233d 2460 e03c 6079 20bb
000003d0: a72f c8bc e62b 67bc 569e 653c ec72 79bc
000003e0: f43c 3dbc e1c5 acbc 4f59 53bd e044 b6bc
000003f0: a0b8 85bc 77b9 ff3a 8bb0 133d 1f54 d33b
-0.037011176 -0.0017230391 0.0031756638 -0.023611197 -0.003354525 0.004174346 0.022521047 -0.01830075
0.022246225 0.0031101787 -0.00667176 -0.013203809 0.006739138 -0.0043346514 0.006076561 0.008400078
-0.00034969326 0.043414537 0.044772737 0.024120718 0.01059581 0.017281322 0.012384059 0.0023985633
-0.0055050035 -0.00015596037 0.0071380036 -0.0137463175 -0.015493019 -0.017597875 -0.024310658 -0.0484877
-0.05167331 0.06803072 -0.014337866 -0.080263376 0.045844775 0.023536619 -0.006122628 0.029077424
0.006690894 0.0022739624 -0.010313743 -0.01926714 -0.019529482 -0.0109967645 0.016448941 0.025765883
-0.013736759 -0.020909512 -0.0075910795 0.029734872 -0.004033277 0.008719658 0.013002816 0.03248686
0.027936224 0.002403957 0.010515393 -0.00071608607 -0.022743246 0.013652913 0.007170378 -0.022885263
0.019824257 0.051517155 0.0034628315 -0.00093698764 -0.0018469499 0.003852431 -0.020104734 -0.036650237
-0.009693262 -0.02830768 0.017160881 -0.03029176 -0.02524668 -0.019969208 0.012279755 0.025347233
0.013636058 -0.015284556 -0.04244524 -0.021012202 -0.00028358304 0.008136916 -0.02237608 -0.022928758
-0.012677935 -0.04845603 -0.01834274 0.00016359186 -0.0037046028 -0.014121422 0.002863772 -0.016772296
0.031844698 0.02474754 -0.033040773 -0.046620313 -0.036445845 0.037851535 -0.019535588 -0.008773712
0.020984374 -0.005370037 0.012257712 0.057654377 0.02248253 0.03594356 0.035905343 -0.008700232
0.005954905 0.010376129 -0.042712215 -0.033831377 -0.036575213 -0.0059331823 -0.006823192 0.022565015
-0.0032284423 -0.012007397 -0.005891702 -0.0053146714 0.008140297 0.01926031 -0.0148893325 -0.015808355
-0.012675559 -0.028711587 -0.0022414858 0.03799486 0.007870402 0.009231072 0.040628366 -0.0026543294
-0.022964299 -0.0029589576 0.010118322 -0.025334679 -0.013070714 0.030654874 0.0073913937 -0.0034470502
-0.0002372537 0.00092348433 -0.0013104483 0.024753733 0.026035797 0.018951334 0.035660885 0.0029653304
-0.024027426 -0.015506572 -0.011696337 -0.0012651265 0.016590307 -0.0011855161 0.021586273 0.0110665355
-0.0068175225 0.011704424 0.02399321 0.044693377 0.0012891889 -0.054789886 -0.009746252 -0.017295452
-0.031703707 -0.027328163 -0.030281529 -0.019344551 -0.008885205 0.0012038278 -0.015476789 -0.027334612
-0.01723279 -0.009567787 0.01677858 -0.02064517 -0.003436983 0.022363767 -0.016046336 0.014071452
0.018071316 -0.0051909494 -0.02255912 0.01518414 0.028876474 0.026304571 0.00921149 -0.025432859
-0.0033194365 0.011942694 -0.022676142 -0.020845538 -0.015502975 -0.012463567 0.015792882 0.01695796
-0.0019850142 -0.017319052 0.0016034975 0.008314843 -0.010518861 0.01525225 0.0539275 0.015318934
-0.03413203 -0.029329758 0.0099805705 -0.0032251047 -0.020875376 0.0003576619 0.014118126 -0.047344055
0.0030192314 -0.0119373975 -0.018349003 -0.021279162 -0.0046550767 -0.013705631 -0.022351213 0.004930045
0.03268951 0.004266971 -0.018175768 0.0031431273 -0.02132703 -0.042244367 -0.012932152 0.003763956
-0.02467338 0.009795369 -0.02313258 -0.027869143 -0.0035970584 0.02282314 0.040728286 0.020831605
0.006420587 0.039867137 0.027389593 -0.0024486408 -0.024436785 -0.014109587 0.014014801 -0.015225153
-0.011550177 -0.02109045 -0.051598843 -0.022249639 -0.016323388 0.0019510229 0.036057036 0.006449237

conv_layer4.bias f4 [64]
00000000: dea7 5bbc 69f1 83bb f7d3 8db9 6d7f 62bc
00000010: 6658 8e3b 9c1a 22bd 3df8 173b a844 92bc
00000020: 8db6 7d3b 3a40 203c a5e5 933c 9d3c e53c
00000030: effb 753c 7549 673c 3d2e 35bc 7d85 13bd
00000040: 8421 883a 9826 923b ee20 293c f6b5 0f3a
00000050: e244 08bd 3128 3b3b 04e8 71bc e12d 283c
00000060: bb4c cebc 4232 c03c 40e2 c4bc de6b 1e3b
00000070: f57e 693b 60fa 733d 4a6d 8cbc 887c 02bd
00000080: 6290 03bc 2de2 433c 2529 ecbc 181e d7bb
00000090: d99e 1bbd 61e1 e6bc dc83 213b 3950 5d3c
000000a0: 559c 26bc fc4b 7c3c e7b7 a23a 2a4b 66bb
000000b0: 443f 01bd a95e f53b 00b0 63bc 7991 d0bb
000000c0: a110 e03b cec1 4f3a 70e2 6d3c b6d2 833c
000000d0: f375 22bc 027c 9aba b948 733c eabb e73b
000000e0: 9b2f c5bb 48e7 9cba 0c21 6b3c 2226 1abc
000000f0: c7b5 78bc 7af5 7c3c af9d 183b e704 ff3a
-0.013406722 -0.004026581 -0.00027051542 -0.013824326 0.004344034 -0.039576158 0.0023188733 -0.017855003
0.0038713545 0.009780938 0.018053839 0.027983004 0.015013679 0.014116635 -0.011058387 -0.036015976
0.0010385965 0.004460167 0.010322792 0.00054821314 -0.033268817 0.0028557891 -0.0147647895 0.010264845
-0.025183072 0.023461465 -0.024033666 0.002417318 0.003562865 0.059564948 -0.017141957 -0.031857044
-0.008030029 0.01195578 -0.028828213 -0.0065648668 -0.037993286 -0.02818364 0.0024645245 0.013507896
-0.010169108 0.015398975 0.0012414426 -0.0035140016 -0.031554475 0.007488091 -0.013896942 -0.006364998
0.00683792 0.00079253025 0.014519319 0.016091686 -0.009915817 -0.0011786225 0.014848881 0.0070719616
-0.006017638 -0.0011970783 0.014351141 -0.009408506 -0.015180058 0.015439386 0.0023287346 0.0019456417

conv_layer5.weight f4 [64, 64, 3, 3]
00000000: fba2 debc ba78 3bbc 4e3d 543b a8ff c2bc
00000010: 47b3 a8bc b355 e6bc e5eb 80bc b665 65bc
00000020: 4f91 b93b 93a5 5ebc 9f74 dfbc c4d7 00bd
00000030: cb7b 9d3b b4c5 3bbc 9e75 2439 37d3 1a3b
00000040: 5cd2 07bc 6a00 c7bb d8d4 47bc 32f0 31bb
00000050: 8ee0 cbbc ac61 e3bb 0509 09bd feee 11bc
00000060: 5ee2 623c 70a5 0d3c 85f3 f9bb d5bc 09bc
00000070: 41a4 073c c845 e13b 4371 40bb 78de 4c3c
00000080: 92c2 a8bb a5f8 18bc 74ca 213c 0d50 69bc
00000090: 5547 1f3c 5165 f63b 77c4 8e3a cb76 20bc
000000a0: 6e30 f33b 0c98 e1bb 9b43 04bc ef78 8f3b
000000b0: 7afd 003c 9620 f3bc 1029 6fbc 8539 e03b
000000c0: eccf dabb 7d67 18bc 1603 88bc 812d e33c
000000d0: c465 283c b92e e63b 061f a33c 83a8 703c
000000e0: f700 393c 2ea8 4f3b 0e3f 543b fa95 013d
000000f0: acfb b03c f3b8 933c 617b ce3c b347 ec38
00000100: d73f f23a 4308 c9ba 2037 d5bb c895 fdbb
00000110: 8e90 63bc 5d83 e63b bdfe 093b d22b 87bc
00000120: 65fb de3b f9ba 2cbc e700 0bbb e92d d6bc
00000130: ef64 0ebd 8c9c 953b 90b2 5bbc 3b81 95bc
00000140: 5183 f03c 7508 5abb 9678 a33c a448 f73b
00000150: a7e8 8e3c c37f 8fbc d8af f5bc a42d d93b
00000160: ef2a 23bc df96 9ebc ebf5 ef3c 1f24 af3b
00000170: b5b4 67ba 1184 313d b2cd 313c 53f2 c9bc
00000180: ebe0 fc3c 49f9 583c d868 1fbd 933c 59bc
00000190: 244b e9bb 9ec9 393c e542 1c3c 096c 543c
000001a0: 9e9b cd3c 77a1 39bc f8d9 c3ba 546f d6bb
000001b0: e8c7 863c b90b 393c 5c54 4b3c a225 4d3d
000001c0: a2ba bc3c cafe aaba ecb9 823c c43c 0fbc
000001d0: 933f 26bc 2d1a 053d 23b5 2dba 32d3 f8bc
000001e0: 0cc8 bd3c 7dc5 1e3c 6621 d03b 9ed5 d93b
000001f0: 2477 e33c 8a04 3d3c 0ab9 9fbc b911 b2bc
00000200: f41a eb3b 7f69 cdbb d817 753c 185f b83c
00000210: c017 c0bb 3b12 cb3c 62c2 be3b 99ec 04bc
00000220: 4a9b 22bc 6cba 5ebb 4a56 96bc c95d ab3c
00000230: 8950 aa3c dd57 07bc cfcb e63c f539 fc3c
00000240: 804f 6c3c 544b 6dbc 0387 f5ba b11e 7b3c
00000250: 7de6 163c 750d 9cbb cd56 853b 15bd 3c3c
00000260: afae 363c ed61 193c 166c f03c b9f0 873c
00000270: b84f ab3b 3a8b 983c a79c a8bb 8e81 f3bb
00000280: 8e62 d2bb 4f53 adbc 380d f4bb 9b00 913c
00000290: 1d6f 1c3d 6d04 51bb 3bfb 04bb a86d 3a3c
000002a0: 2369 71bb 3ae9 77bc 8af7 b3bc 294c 193c
000002b0: f580 073b a366 e83b 45b4 83bb bc49 de3a
000002c0: fab9 00bc fa3d 52bc 5095 fb3b d722 983c
000002d0: 4ba6 a3bb 25b3 1f3c 675f d0bc 8845 59bc
000002e0: 8e28 133c d301 b03c ee3f 97ba 9c87 95bc
000002f0: 1659 79bc a776 3e3c 0dac 65bc 0628 4fbc
00000300: a29e 383d 9adb 103b a6cd c0bc 2fb1 303d
00000310: 1959 2c3c 4eb6 733c b411 73bb 4d56 0fbc
00000320: 141f 44bc e99e 10bc cc2b 833b 14e0 a5ba
00000330: e244 19bc b5cb 3abc 9b7f 20bc 8a15 0c3d
00000340: 7a87 de3c e3eb e43a c7e5 c7bb 642f 76bc
00000350: da97 5cbc 76fb 49bc edeb 413b 4ff1 48bc
00000360: e2e9 823c 0033 a0bb d49d 1bbc 5ad2 ec3c
00000370: 48d7 f93a 6a9c 34bc 24fa 163c 85e6 aa3c
00000380: 628e 6bbc 0601 e1bc ddde 653c 7bb4 61bc
00000390: 41db 25bd dedf 9a3a 77bd f1bc b0f6 b9bc
000003a0: 2f38 78bb e860 c4bc 27ea 3ebc 9d8b e3ba
000003b0: 5a83 04bc 0ebf 573c 45f2 813c fbd0 453c
000003c0: dd08 7c3c 2ae5 50bc 2284 1d3c 9f55 963c
000003d0: de5c c439 2876 e9bc 1d54 5bbb 5b7f c1bc
000003e0: 93a2 9bbc c96c 0f3c 06fe 75bc ab9c 87bc
000003f0: 7ce2 78bb 04f0 39bb db87 2ebc 8bb8 d5bc
-0.027177325 -0.011442358 0.0032385173 -0.023803547 -0.020593299 -0.028117036 -0.015737483 -0.014001301
0.005663074 -0.013589281 -0.027277289 -0.03145577 0.004806017 -0.01146071 0.00015684075 0.002362443
-0.0082899 -0.0060730474 -0.012196742 -0.0027151224 -0.02488735 -0.0069391336 -0.033455867 -0.008907078
0.013847915 0.0086454 -0.0076279067 -0.0084068375 0.008278907 0.0068747737 -0.0029364384 0.012504213
-0.0051501477 -0.009336625 0.009874929 -0.014240277 0.009721597 0.007519402 0.0010892291 -0.009793947
0.0074215448 -0.0068845805 -0.008072759 0.00437843 0.0078729335 -0.029678624 -0.014597192 0.0068427944
-0.0066776183 -0.009302017 -0.016603034 0.027731659 0.010278169 0.0070246127 0.019912254 0.014688614
0.011291734 0.0031685936 0.0032386216 0.03163717 0.021604382 0.018032527 0.025205316 0.00011266712
0.001848216 -0.0015337545 -0.0065068156 -0.0077388026 -0.013889445 0.0070347027 0.0021056377 -0.016500387
0.006804871 -0.010542625 -0.0021210255 -0.026144939 -0.034764227 0.004565781 -0.013409272 -0.018250098
0.029359492 -0.00332692 0.01995496 0.0075465012 0.017444922 -0.017516976 -0.029991075 0.0066277552
-0.009958967 -0.01935905 0.029292068 0.005344882 -0.0008838878 0.04333884 0.010852264 -0.024651682
0.030868968 0.013243028 -0.038918346 -0.013259071 -0.007119553 0.011339573 0.009537433 0.012965211
0.025098618 -0.01133 -0.0014942279 -0.006544033 0.016452745 0.011294299 0.01241025 0.050084718
0.023038212 -0.0013045904 0.015957795 -0.008742515 -0.010146993 0.032495666 -0.0006626418 -0.030374143
0.023166679 0.00969064 0.0063516377 0.0066477796 0.027766772 0.011536727 -0.019497413 -0.021736966
0.007174844 -0.0062686796 0.014959298 0.022506282 -0.005862206 0.024788966 0.005821512 -0.00811305
-0.009924719 -0.0033985628 -0.018351693 0.020918744 0.020790355 -0.008260694 0.028173355 0.030789355
0.014423251 -0.014483292 -0.0018732253 0.015327142 0.009210226 -0.0047623464 0.0040691854 0.01151969
0.011150046 0.009361726 0.029348414 0.016594278 0.005228009 0.018621076 -0.0051456275 -0.0074312156
-0.00642044 -0.021157889 -0.007447865 0.017700484 0.038191903 -0.0031893507 -0.0020291347 0.011378683
-0.0036836348 -0.015131289 -0.021968622 0.009356537 0.002067623 0.0070923134 -0.0040192925 0.001695923
-0.00785684 -0.012832159 0.0076777115 0.0185713 -0.004994189 0.009747301 -0.025436116 -0.013261206
0.008981837 0.021485245 -0.0011539438 -0.01825314 -0.015218994 0.011624969 -0.014018071 -0.01264382
0.04507316 0.002210355 -0.02353556 0.043137725 0.010519289 0.014875008 -0.003708941 -0.008748603
-0.0119703 -0.00882695 0.0040030237 -0.0012655281 -0.009354802 -0.011401107 -0.0097960485 0.03420023
0.02716421 0.0017465319 -0.0061003896 -0.015025947 -0.013463939 -0.012328019 0.0029590086 -0.012264564
0.015980665 -0.004888892 -0.009498078 0.028908897 0.0019061351 -0.01102362 0.009214912 0.020861873
-0.014377208 -0.027466308 0.0140301855 -0.01377594 -0.0404923 0.0011815985 -0.02950929 -0.022700638
-0.0037875285 -0.02397199 -0.011652506 -0.0017360334 -0.008087957 0.01316811 0.015862593 0.012073751
0.015382973 -0.0127499495 0.009614022 0.018351374 0.00037453225 -0.028498724 -0.0033466883 -0.023620298
-0.01899842 0.008753964 -0.015014177 -0.016554197 -0.0037976792 -0.002837182 -0.010652508 -0.026088974

conv_layer5.bias f4 [64]
00000000: defb 1fba 769e c23b 9ad3 b43a fecb dc3b
00000010: 7010 ea3b 089d 6fb9 5bc5 c2bb 64ac ff3a
00000020: 7e81 3cbb 4659 77bb 204d fc3b f063 053c
00000030: 9534 8b3a ff20 e6b9 75d2 cf3b b28b cdba
00000040: 5968 c0bb 2eaf 0ebb 2714 d5bb d58d 68bb
00000050: b446 febb 4d5d 6e3b 804c 843b 783a e63b
00000060: 788e b7bb 0563 81ba 8ff5 a93a 8e17 f83a
00000070: d29e 55ba 7df2 8cbb 9e2b a93b 35d6 023c
00000080: bd47 a03a 0dc1 0c3b 2e78 26bb d14b 05bb
00000090: 40b3 a8bb d07c f03a 0c1f 10bb dd78 023b
000000a0: e50d 4ebb 4200 f8bb 0cf8 c7bb 2ad6 c73b
000000b0: fac0 c03b 41df 40bb 8970 c93b b9fa 92bb
000000c0: 0cca d33b eab7 b3bb 0002 9ebb 4af9 b13b
000000d0: 13a3 8dbb 32e9 b3bb dd92 d23b 89fc 8f39
000000e0: 4911 8a3b 113a dd3b 74de cf3b 155a a43b
000000f0: a38c fa3b 738b 903b 2ee5 7c3a 1d4e 3bbb
-0.00061029 0.0059393 0.0013795972 0.006738185 0.007143073 -0.00022851315 -0.0059439368 0.0019506332
-0.0028763707 -0.003774242 0.0076996237 0.008141503 0.0010620529 -0.00043893603 0.006342227 -0.0015681891
-0.005871814 -0.0021771896 -0.0065026465 -0.003548493 -0.0077598933 0.003637153 0.00403744 0.007026013
-0.0056017004 -0.0009871429 0.0012966859 0.0018927918 -0.0008148971 -0.004301368 0.0051626703 0.007985641
0.0012228411 0.0021477372 -0.0025401223 -0.002033938 -0.0051483214 0.0018347744 -0.0021991162 0.0019908466
-0.0031441387 -0.00756839 -0.0061025675 0.0060985284 0.0058823796 -0.0029429945 0.0061474484 -0.004485455
0.006463295 -0.0054845707 -0.0048220158 0.005431329 -0.0043224185 -0.0054904455 0.006426199 0.0002746324
0.0042134863 0.006751307 0.006343657 0.0050156214 0.0076461597 0.004411155 0.00096471875 -0.0028580495

bn2.weight f4 [64]
00000000: ee8f 2c3f 161f 473f c764 4b3f d466 233f
00000010: ea90 303f cb38 2f3f b6e6 3c3f 9a7c 263f
00000020: 6b62 423f 3a59 3b3f 215f 343f c8b1 383f
00000030: 6f1d 303f 1da1 333f a93d 313f c588 303f
00000040: e786 413f c522 513f 6953 483f ca77 563f
00000050: cd0c 423f 370f 323f 0944 383f a3b0 2d3f
00000060: 96b2 3b3f 2030 3a3f 2e1f 523f c64c 3a3f
00000070: fc5d 3d3f 15db 323f c7d9 4a3f 42a4 393f
00000080: 27f0 2d3f d62c 5e3f 205b 493f 9cc7 313f
00000090: a5ee 5b3f ca02 383f 247e 2f3f f63a 303f
000000a0: 71bb 303f 308f 423f 8276 393f 3664 2d3f
000000b0: b1eb 413f ffbf 3c3f ff05 3a3f afcb 263f
000000c0: 8ed2 373f 8580 403f 8b80 553f 58fc 543f
000000d0: e09b 3a3f 768b 243f 6ae0 243f 25e5 283f
000000e0: 0489 2d3f d9a8 253f 473a 5a3f 2ab4 393f
000000f0: 237b 2b3f 67b9 2b3f 8253 353f 00bb 2a3f
0.6740712 0.7778181 0.7945065 0.6382878 0.6897112 0.68446034 0.73789537 0.65033877
0.75931424 0.73183024 0.70457655 0.7214627 0.6879491 0.70167714 0.6923471 0.68958694
0.7559647 0.8169368 0.78252274 0.83776534 0.7580078 0.69554466 0.71978813 0.6784765
0.73319376 0.7272968 0.82078826 0.72773397 0.73971534 0.6986554 0.7923855 0.7251626
0.6794457 0.86787164 0.7865467 0.69445205 0.8591102 0.71879256 0.6855185 0.6883997
0.6903601 0.75999737 0.72446454 0.67731035 0.7575026 0.7373046 0.726654 0.65154546
0.71805656 0.75196105 0.83399266 0.83197546 0.72894096 0.642753 0.6440493 0.65974647
0.67787194 0.64710766 0.85245174 0.72540534 0.66984767 0.67079777 0.7083055 0.6669159

bn2.bias f4 [64]
00000000: e910 1cbd f0ba 9abd 2041 2b3d f996 9e3d
00000010: 3c30 52bd 7119 ec3c 19de a73c d7d6 e83d
00000020: 5c6a 863d 98c6 95bc 1e9d 903d 4518 8f3b
00000030: caaf 343d 5a8b d13d 830d 3a3c 4292 073e
00000040: 5145 213d 5830 b33b 8e6b 453b c2ab c8bc
00000050: 11b2 a1bd c4e8 8d3d 32b9 57bd a73a c73d
00000060: f308 b33c 9606 343d 9daf 8dbd 49ea aabd
00000070: 2fcc c3bc c011 2abd a2fb 07bd 19c1 86bc
00000080: 7443 ba3c c99e 95bd 5174 0d3d 25ef 303d
00000090: a352 fbbc 0694 903d c9f6 f03d 09f0 8c3d
000000a0: f277 f13c a48a 7bbc 899d 883d a442 b53c
000000b0: 925a 3d3b ec31 283c e7fa 893c 26ec c43c
000000c0: 7914 4c3d a5d1 7f3d 8125 063d adcf f5bb
000000d0: bf1c 283d 34ea 273d 786c ba3d a5dc 403d
000000e0: 1a61 793d 095a 293d a4ae 9a3c 7ba9 9c3c
000000f0: 0b2f 7d3d 1f25 933d a1be e1bc f828 0d3d
-0.038102064 -0.07555187 0.041810155 0.077436395 -0.05131553 0.028820725 0.020491647 0.113691024
0.06563255 -0.018283173 0.07061218 0.004366907 0.044112958 0.10231657 0.0113557605 0.13239387
0.039372746 0.0054684095 0.0030123922 -0.024495963 -0.078952916 0.06929162 -0.05266685 0.09727984
0.021854853 0.043951593 -0.06918261 -0.083454676 -0.023901073 -0.041520834 -0.03319896 -0.016449498
0.022737242 -0.073056765 0.034534756 0.043196816 -0.030679053 0.07059483 0.117658205 0.068817206
0.02947614 -0.015352879 0.066706724 0.022126503 0.0028893095 0.010265809 0.016843272 0.024038386
0.04982421 0.062455792 0.03275061 -0.0075015635 0.04104304 0.040994838 0.0910272 0.047085423
0.06088362 0.04134563 0.018882103 0.019123783 0.06181244 0.07184815 -0.02755672 0.0344629

bn2.running_mean f4 [64]
00000000: 2fdd 96b9 bdcb b43b 693f 9aba 4cd7 fa3b
00000010: e15e d2bb 39bf d639 0302 8b3b 2377 efbb
00000020: 76ad 8dbc e5f3 90bc 5be2 63bc a0a0 253c
00000030: efcc 05bb db83 34bd 75cd 86bc 9d36 efbb
00000040: ef53 2fbd f445 06bc c3b4 3fbc 300a bebb
00000050: ea87 b8bc 44f4 b339 baaa 33bb 4ce4 813a
00000060: 6d0c 42bc 62cf d9bb 4405 04bc e2a8 653c
00000070: e5d6 5cba a0d3 14bc 80cd 08bc 8705 123b
00000080: 5db7 48bc 601f fcbb eb85 ebbb f112 c8bb
00000090: b570 b0bb 8c78 dbbb 6f6e 1bbc b051 59bb
000000a0: bee0 50bc 28f8 f1ba 995e 5ebc 4bee b9bb
000000b0: 6f0d 58bc 0669 f8bb cbbb 253b 457f 9abc
000000c0: 5faf d6bb e956 d6bc 7539 aabc 7c40 caba
000000d0: c349 cebc 0e65 12bc 9b18 533c 3c44 0dbc
000000e0: 97b3 39bc b866 7f3c 9564 12bc 8dc2 cdbb
000000f0: b6a0 71bc c3f7 0ebc 4c37 26bc d6e5 fdbb
-0.00028775024 0.0055174516 -0.0011768165 0.00765506 -0.006420002 0.00040959733 0.004242183 -0.0073079034
-0.017294627 -0.017694423 -0.013908948 0.010109097 -0.002041634 -0.04407106 -0.016455391 -0.0073002116
-0.042804655 -0.008195389 -0.011700812 -0.0057995543 -0.022525746 0.00034323533 -0.0027414993 0.0009909957
-0.011843783 -0.0066470364 -0.008057896 0.014017316 -0.0008424356 -0.009083658 -0.008349776 0.0022281127
-0.012250748 -0.00769417 -0.007187595 -0.0061057736 -0.0053845295 -0.00669772 -0.009486779 -0.0033160262
-0.012748895 -0.0018460797 -0.0135723585 -0.0056741587 -0.013186797 -0.007580879 0.0025288935 -0.018859515
-0.0065516676 -0.026164489 -0.02077935 -0.0015430595 -0.025181657 -0.008935226 0.012884284 -0.008622225
-0.011334321 0.015588455 -0.008935113 -0.006279296 -0.014747789 -0.008726063 -0.01014502 -0.007748346

bn2.running_var f4 [64]
00000000: a7ac 573b 8c6e 9e3b a2f2 ac3b 54f9 283b
00000010: e941 7e3b ad82 383b d593 743b 4a27 5c3b
00000020: c255 9c3b e355 923b 742b 983b beda aa3b
00000030: 7b8d 713b 44e4 813b bdc0 883b 614a 8b3b
00000040: 4aa0 9e3b c225 b03b 8c2b 763b 1287 c03b
00000050: 3575 893b a4c4 4c3b 778e 833b acdd 613b
00000060: f015 793b 0b6f 573b bdcb b73b a622 973b
00000070: 6821 773b bcd8 893b b0ed a83b df9e 653b
00000080: 3db5 633b 9f30 ee3b 9dc5 b03b ece7 6c3b
00000090: dc55 bf3b 9c6d 833b 3ea2 803b 0b97 893b
000000a0: d8e4 853b 8442 8c3b aafc 693b 509a 673b
000000b0: 7ec6 a63b 2a64 743b 84cd 733b 64fb 6f3b
000000c0: 7569 673b 2075 953b 34f0 a13b 366c d53b
000000d0: a289 9c3b b8b1 693b fc2b 413b 1839 503b
000000e0: 0285 563b 0b39 503b fc20 ce3b ef6d 873b
000000f0: cf72 603b 2ac7 483b 3e8a 713b 5b4d 633b
0.0032909305 0.0048349556 0.0052779475 0.0025783377 0.003879661 0.002815406 0.003731956 0.0033592754
0.0047709653 0.004465805 0.004643852 0.0052140644 0.003685801 0.003963979 0.004173367 0.00425081
0.0048408853 0.005375595 0.0037562577 0.0058754766 0.0041948804 0.0031245137 0.004014786 0.0034464402
0.003800746 0.0032872583 0.0056090043 0.0046122847 0.003770912 0.004206745 0.0051552877 0.0035037322
0.0034745478 0.0072689797 0.005394651 0.0036148978 0.0058390927 0.004010869 0.003925591 0.004198914
0.004086118 0.00428039 0.0035703578 0.003533978 0.00508958 0.0037291148 0.0037201354 0.0036618346
0.003531066 0.0045610815 0.0049419645 0.006513144 0.0047771493 0.0035658907 0.002947568 0.0031772312
0.0032733087 0.0031772282 0.006290553 0.004132978 0.0034248119 0.003063629 0.003685608 0.0034683559
